…
[ARGS::num_workers] 12
[ARGS::save_interval] 5
[ARGS::debug] False
[ARGS::aug_rotate] True
[ARGS::loss_type] 'NN'
[ARGS::sched_patience] 10
[ARGS::sched_factor] 0.5
[ARGS::min_lr] 1e-12
[ARGS::lr] 1e-09
[ARGS::weight_decay] 0
[ARGS::seed] 2024
[ARGS::log_root] './logs'
[ARGS::device] 'cuda'
[ARGS::val_noise] 0.015
[ARGS::patch_size] 1000
[ARGS::frame_knn] 32
[ARGS::num_modules] 4
[ARGS::noise_decay] 4
DenoiseNet(
  (feature_nets): ModuleList(
    (0): FeatureExtraction(
      (conv1): DynamicEdgeConv()
      (conv2): DynamicEdgeConv()
      (conv3): DynamicEdgeConv()
      (conv4): DynamicEdgeConv()
      (linear1): Linear(in_features=256, out_features=128, bias=False)
      (linear2): Linear(in_features=128, out_features=64, bias=True)
      (linear3): Linear(in_features=64, out_features=3, bias=True)
    )
    (1): FeatureExtraction(
      (conv1): DynamicEdgeConv()
      (conv2): DynamicEdgeConv()
      (conv3): DynamicEdgeConv()
      (conv4): DynamicEdgeConv()
      (linear1): Linear(in_features=256, out_features=128, bias=False)
      (linear2): Linear(in_features=128, out_features=64, bias=True)
      (linear3): Linear(in_features=64, out_features=3, bias=True)
    )
    (2): FeatureExtraction(
      (conv1): DynamicEdgeConv()
      (conv2): DynamicEdgeConv()
      (conv3): DynamicEdgeConv()
      (conv4): DynamicEdgeConv()
      (linear1): Linear(in_features=256, out_features=128, bias=False)
      (linear2): Linear(in_features=128, out_features=64, bias=True)
      (linear3): Linear(in_features=64, out_features=3, bias=True)
    )
    (3): FeatureExtraction(
      (conv1): DynamicEdgeConv()
      (conv2): DynamicEdgeConv()
      (conv3): DynamicEdgeConv()
      (conv4): DynamicEdgeConv()
      (linear1): Linear(in_features=256, out_features=128, bias=False)
      (linear2): Linear(in_features=128, out_features=64, bias=True)
      (linear3): Linear(in_features=64, out_features=3, bias=True)
    )
  )
)
INFO: Start training...
INFO: Building model...
INFO: Building model...
INFO: Building model...
[ARGS::dataset_root] './data'
[ARGS::dataset] 'PUNet'
[ARGS::changelog] ''
[ARGS::patches_per_shape_per_epoch] 100
[ARGS::patch_ratio] 1.2
[ARGS::resolutions] ['10000_poisson', '30000_poisson', '50000_poisson']
[ARGS::noise_min] 0.005
[ARGS::noise_max] 0.02
…
